…
I1003 10:16:11.393753 21857 upgrade_proto.cpp:66] Attempting to upgrade input file specified using deprecated input fields: ../../models/face68map/matlab.prototxt
I1003 10:16:11.393777 21857 upgrade_proto.cpp:69] Successfully upgraded file specified using deprecated input fields.
W1003 10:16:11.393786 21857 upgrade_proto.cpp:71] Note that future Caffe releases will only support input layers and not input fields.
I1003 10:16:11.394217 21857 net.cpp:58] Initializing net from parameters: 
state {
  phase: TEST
  level: 0
}
layer {
  name: "input"
  type: "Input"
  top: "data"
  input_param {
    shape {
      dim: 1
      dim: 3
      dim: 256
      dim: 256
    }
  }
}
layer {
  name: "conv1"
  type: "Convolution"
  bottom: "data"
  top: "conv1"
  param {
    lr_mult: 1
    decay_mult: 1
  }
  param {
    lr_mult: 2
    decay_mult: 0
  }
  convolution_param {
    num_output: 128
    pad: 2
    kernel_size: 5
    stride: 1
    weight_filler {
      type: "gaussian"
      std: 0.01
    }
    bias_filler {
      type: "constant"
      value: 0
    }
  }
}
layer {
  name: "relu1"
  type: "ReLU"
  bottom: "conv1"
  top: "conv1"
}
layer {
  name: "pool1"
  type: "Pooling"
  bottom: "conv1"
  top: "pool1"
  pooling_param {
    pool: MAX
    kernel_size: 2
    stride: 2
  }
}
layer {
  name: "conv2"
  type: "Convolution"
  bottom: "pool1"
  top: "conv2"
  param {
    lr_mult: 1
    decay_mult: 1
  }
  param {
    lr_mult: 2
    decay_mult: 0
  }
  convolution_param {
    num_output: 128
    pad: 2
    kernel_size: 5
    weight_filler {
      type: "gaussian"
      std: 0.01
    }
    bias_filler {
      type: "constant"
      value: 1
    }
  }
}
layer {
  name: "relu2"
  type: "ReLU"
  bottom: "conv2"
  top: "conv2"
}
layer {
  name: "pool2"
  type: "Pooling"
  bottom: "conv2"
  top: "pool2"
  pooling_param {
    pool: MAX
    kernel_size: 2
    stride: 2
  }
}
layer {
  name: "conv3"
  type: "Convolution"
  bottom: "pool2"
  top: "conv3"
  param {
    lr_mult: 1
    decay_mult: 1
  }
  param {
    lr_mult: 2
    decay_mult: 0
  }
  convolution_param {
    num_output: 128
    pad: 2
    kernel_size: 5
    weight_filler {
      type: "gaussian"
      std: 0.01
    }
    bias_filler {
      type: "constant"
      value: 0
    }
  }
}
layer {
  name: "relu3"
  type: "ReLU"
  bottom: "conv3"
  top: "conv3"
}
layer {
  name: "conv4"
  type: "Convolution"
  bottom: "conv3"
  top: "conv4"
  param {
    lr_mult: 1
    decay_mult: 1
  }
  param {
    lr_mult: 2
    decay_mult: 0
  }
  convolution_param {
    num_output: 256
    pad: 4
    kernel_size: 9
    weight_filler {
      type: "gaussian"
      std: 0.01
    }
    bias_filler {
      type: "constant"
      value: 1
    }
  }
}
layer {
  name: "relu4"
  type: "ReLU"
  bottom: "conv4"
  top: "conv4"
}
layer {
  name: "conv5"
  type: "Convolution"
  bottom: "conv4"
  top: "conv5"
  param {
    lr_mult: 1
    decay_mult: 1
  }
  param {
    lr_mult: 2
    decay_mult: 0
  }
  convolution_param {
    num_output: 512
    pad: 4
    kernel_size: 9
    weight_filler {
      type: "gaussian"
      std: 0.01
    }
    bias_filler {
      type: "constant"
      value: 1
    }
  }
}
layer {
  name: "relu5"
  type: "ReLU"
  bottom: "conv5"
  top: "conv5"
}
layer {
  name: "conv6"
  type: "Convolution"
  bottom: "conv5"
  top: "conv6"
  param {
    lr_mult: 1
    decay_mult: 1
  }
  param {
    lr_mult: 2
    decay_mult: 0
  }
  convolution_param {
    num_output: 256
    kernel_size: 1
    weight_filler {
      type: "gaussian"
      std: 0.01
    }
    bias_filler {
      type: "constant"
      value: 1
    }
  }
}
layer {
  name: "relu6"
  type: "ReLU"
  bottom: "conv6"
  top: "conv6"
}
layer {
  name: "conv7"
  type: "Convolution"
  bottom: "conv6"
  top: "conv7"
  param {
    lr_mult: 1
    decay_mult: 1
  }
  param {
    lr_mult: 2
    decay_mult: 0
  }
  convolution_param {
    num_output: 256
    kernel_size: 1
    weight_filler {
      type: "gaussian"
      std: 0.01
    }
    bias_filler {
      type: "constant"
      value: 1
    }
  }
}
layer {
  name: "relu7"
  type: "ReLU"
  bottom: "conv7"
  top: "conv7"
}
layer {
  name: "conv8"
  type: "Convolution"
  bottom: "conv7"
  top: "conv8"
  param {
    lr_mult: 1
    decay_mult: 1
  }
  param {
    lr_mult: 2
    decay_mult: 0
  }
  convolution_param {
    num_output: 68
    kernel_size: 1
    weight_filler {
      type: "gaussian"
      std: 0.01
    }
    bias_filler {
      type: "constant"
      value: 1
    }
  }
}
I1003 10:16:11.394333 21857 layer_factory.hpp:77] Creating layer input
I1003 10:16:11.394359 21857 net.cpp:100] Creating Layer input
I1003 10:16:11.394382 21857 net.cpp:408] input -> data
I1003 10:16:11.418171 21857 net.cpp:150] Setting up input
I1003 10:16:11.418236 21857 net.cpp:157] Top shape: 1 3 256 256 (196608)
I1003 10:16:11.418246 21857 net.cpp:165] Memory required for data: 786432
I1003 10:16:11.418259 21857 layer_factory.hpp:77] Creating layer conv1
I1003 10:16:11.418292 21857 net.cpp:100] Creating Layer conv1
I1003 10:16:11.418301 21857 net.cpp:434] conv1 <- data
I1003 10:16:11.418323 21857 net.cpp:408] conv1 -> conv1
I1003 10:16:11.768460 21857 net.cpp:150] Setting up conv1
I1003 10:16:11.768518 21857 net.cpp:157] Top shape: 1 128 256 256 (8388608)
I1003 10:16:11.768529 21857 net.cpp:165] Memory required for data: 34340864
I1003 10:16:11.768563 21857 layer_factory.hpp:77] Creating layer relu1
I1003 10:16:11.768589 21857 net.cpp:100] Creating Layer relu1
I1003 10:16:11.768599 21857 net.cpp:434] relu1 <- conv1
I1003 10:16:11.768611 21857 net.cpp:395] relu1 -> conv1 (in-place)
I1003 10:16:11.769068 21857 net.cpp:150] Setting up relu1
I1003 10:16:11.769093 21857 net.cpp:157] Top shape: 1 128 256 256 (8388608)
I1003 10:16:11.769101 21857 net.cpp:165] Memory required for data: 67895296
I1003 10:16:11.769110 21857 layer_factory.hpp:77] Creating layer pool1
I1003 10:16:11.769126 21857 net.cpp:100] Creating Layer pool1
I1003 10:16:11.769136 21857 net.cpp:434] pool1 <- conv1
I1003 10:16:11.769147 21857 net.cpp:408] pool1 -> pool1
I1003 10:16:11.769218 21857 net.cpp:150] Setting up pool1
I1003 10:16:11.769233 21857 net.cpp:157] Top shape: 1 128 128 128 (2097152)
I1003 10:16:11.769242 21857 net.cpp:165] Memory required for data: 76283904
I1003 10:16:11.769250 21857 layer_factory.hpp:77] Creating layer conv2
I1003 10:16:11.769271 21857 net.cpp:100] Creating Layer conv2
I1003 10:16:11.769281 21857 net.cpp:434] conv2 <- pool1
I1003 10:16:11.769294 21857 net.cpp:408] conv2 -> conv2
I1003 10:16:11.791924 21857 net.cpp:150] Setting up conv2
I1003 10:16:11.791950 21857 net.cpp:157] Top shape: 1 128 128 128 (2097152)
I1003 10:16:11.791961 21857 net.cpp:165] Memory required for data: 84672512
I1003 10:16:11.791980 21857 layer_factory.hpp:77] Creating layer relu2
I1003 10:16:11.791995 21857 net.cpp:100] Creating Layer relu2
I1003 10:16:11.792003 21857 net.cpp:434] relu2 <- conv2
I1003 10:16:11.792014 21857 net.cpp:395] relu2 -> conv2 (in-place)
I1003 10:16:11.792415 21857 net.cpp:150] Setting up relu2
I1003 10:16:11.792434 21857 net.cpp:157] Top shape: 1 128 128 128 (2097152)
I1003 10:16:11.792443 21857 net.cpp:165] Memory required for data: 93061120
I1003 10:16:11.792453 21857 layer_factory.hpp:77] Creating layer pool2
I1003 10:16:11.792465 21857 net.cpp:100] Creating Layer pool2
I1003 10:16:11.792474 21857 net.cpp:434] pool2 <- conv2
I1003 10:16:11.792486 21857 net.cpp:408] pool2 -> pool2
I1003 10:16:11.792548 21857 net.cpp:150] Setting up pool2
I1003 10:16:11.792563 21857 net.cpp:157] Top shape: 1 128 64 64 (524288)
I1003 10:16:11.792584 21857 net.cpp:165] Memory required for data: 95158272
I1003 10:16:11.792594 21857 layer_factory.hpp:77] Creating layer conv3
I1003 10:16:11.792613 21857 net.cpp:100] Creating Layer conv3
I1003 10:16:11.792621 21857 net.cpp:434] conv3 <- pool2
I1003 10:16:11.792634 21857 net.cpp:408] conv3 -> conv3
I1003 10:16:11.816082 21857 net.cpp:150] Setting up conv3
I1003 10:16:11.816108 21857 net.cpp:157] Top shape: 1 128 64 64 (524288)
I1003 10:16:11.816118 21857 net.cpp:165] Memory required for data: 97255424
I1003 10:16:11.816136 21857 layer_factory.hpp:77] Creating layer relu3
I1003 10:16:11.816155 21857 net.cpp:100] Creating Layer relu3
I1003 10:16:11.816165 21857 net.cpp:434] relu3 <- conv3
I1003 10:16:11.816176 21857 net.cpp:395] relu3 -> conv3 (in-place)
I1003 10:16:11.816452 21857 net.cpp:150] Setting up relu3
I1003 10:16:11.816468 21857 net.cpp:157] Top shape: 1 128 64 64 (524288)
I1003 10:16:11.816478 21857 net.cpp:165] Memory required for data: 99352576
I1003 10:16:11.816485 21857 layer_factory.hpp:77] Creating layer conv4
I1003 10:16:11.816509 21857 net.cpp:100] Creating Layer conv4
I1003 10:16:11.816517 21857 net.cpp:434] conv4 <- conv3
I1003 10:16:11.816534 21857 net.cpp:408] conv4 -> conv4
I1003 10:16:11.953028 21857 net.cpp:150] Setting up conv4
I1003 10:16:11.953071 21857 net.cpp:157] Top shape: 1 256 64 64 (1048576)
I1003 10:16:11.953081 21857 net.cpp:165] Memory required for data: 103546880
I1003 10:16:11.953099 21857 layer_factory.hpp:77] Creating layer relu4
I1003 10:16:11.953120 21857 net.cpp:100] Creating Layer relu4
I1003 10:16:11.953131 21857 net.cpp:434] relu4 <- conv4
I1003 10:16:11.953143 21857 net.cpp:395] relu4 -> conv4 (in-place)
I1003 10:16:11.953577 21857 net.cpp:150] Setting up relu4
I1003 10:16:11.953598 21857 net.cpp:157] Top shape: 1 256 64 64 (1048576)
I1003 10:16:11.953608 21857 net.cpp:165] Memory required for data: 107741184
I1003 10:16:11.953616 21857 layer_factory.hpp:77] Creating layer conv5
I1003 10:16:11.953637 21857 net.cpp:100] Creating Layer conv5
I1003 10:16:11.953646 21857 net.cpp:434] conv5 <- conv4
I1003 10:16:11.953660 21857 net.cpp:408] conv5 -> conv5
I1003 10:16:12.416767 21857 net.cpp:150] Setting up conv5
I1003 10:16:12.416828 21857 net.cpp:157] Top shape: 1 512 64 64 (2097152)
I1003 10:16:12.416836 21857 net.cpp:165] Memory required for data: 116129792
I1003 10:16:12.416856 21857 layer_factory.hpp:77] Creating layer relu5
I1003 10:16:12.416872 21857 net.cpp:100] Creating Layer relu5
I1003 10:16:12.416878 21857 net.cpp:434] relu5 <- conv5
I1003 10:16:12.416890 21857 net.cpp:395] relu5 -> conv5 (in-place)
I1003 10:16:12.417218 21857 net.cpp:150] Setting up relu5
I1003 10:16:12.417232 21857 net.cpp:157] Top shape: 1 512 64 64 (2097152)
I1003 10:16:12.417237 21857 net.cpp:165] Memory required for data: 124518400
I1003 10:16:12.417243 21857 layer_factory.hpp:77] Creating layer conv6
I1003 10:16:12.417260 21857 net.cpp:100] Creating Layer conv6
I1003 10:16:12.417266 21857 net.cpp:434] conv6 <- conv5
I1003 10:16:12.417276 21857 net.cpp:408] conv6 -> conv6
I1003 10:16:12.423427 21857 net.cpp:150] Setting up conv6
I1003 10:16:12.423451 21857 net.cpp:157] Top shape: 1 256 64 64 (1048576)
I1003 10:16:12.423457 21857 net.cpp:165] Memory required for data: 128712704
I1003 10:16:12.423466 21857 layer_factory.hpp:77] Creating layer relu6
I1003 10:16:12.423475 21857 net.cpp:100] Creating Layer relu6
I1003 10:16:12.423481 21857 net.cpp:434] relu6 <- conv6
I1003 10:16:12.423488 21857 net.cpp:395] relu6 -> conv6 (in-place)
I1003 10:16:12.423666 21857 net.cpp:150] Setting up relu6
I1003 10:16:12.423678 21857 net.cpp:157] Top shape: 1 256 64 64 (1048576)
I1003 10:16:12.423683 21857 net.cpp:165] Memory required for data: 132907008
I1003 10:16:12.423693 21857 layer_factory.hpp:77] Creating layer conv7
I1003 10:16:12.423712 21857 net.cpp:100] Creating Layer conv7
I1003 10:16:12.423718 21857 net.cpp:434] conv7 <- conv6
I1003 10:16:12.423730 21857 net.cpp:408] conv7 -> conv7
I1003 10:16:12.426940 21857 net.cpp:150] Setting up conv7
I1003 10:16:12.426959 21857 net.cpp:157] Top shape: 1 256 64 64 (1048576)
I1003 10:16:12.426978 21857 net.cpp:165] Memory required for data: 137101312
I1003 10:16:12.426987 21857 layer_factory.hpp:77] Creating layer relu7
I1003 10:16:12.427001 21857 net.cpp:100] Creating Layer relu7
I1003 10:16:12.427008 21857 net.cpp:434] relu7 <- conv7
I1003 10:16:12.427016 21857 net.cpp:395] relu7 -> conv7 (in-place)
I1003 10:16:12.427337 21857 net.cpp:150] Setting up relu7
I1003 10:16:12.427351 21857 net.cpp:157] Top shape: 1 256 64 64 (1048576)
I1003 10:16:12.427356 21857 net.cpp:165] Memory required for data: 141295616
I1003 10:16:12.427362 21857 layer_factory.hpp:77] Creating layer conv8
I1003 10:16:12.427376 21857 net.cpp:100] Creating Layer conv8
I1003 10:16:12.427381 21857 net.cpp:434] conv8 <- conv7
I1003 10:16:12.427392 21857 net.cpp:408] conv8 -> conv8
I1003 10:16:12.429009 21857 net.cpp:150] Setting up conv8
I1003 10:16:12.429028 21857 net.cpp:157] Top shape: 1 68 64 64 (278528)
I1003 10:16:12.429033 21857 net.cpp:165] Memory required for data: 142409728
I1003 10:16:12.429042 21857 net.cpp:228] conv8 does not need backward computation.
I1003 10:16:12.429049 21857 net.cpp:228] relu7 does not need backward computation.
I1003 10:16:12.429054 21857 net.cpp:228] conv7 does not need backward computation.
I1003 10:16:12.429059 21857 net.cpp:228] relu6 does not need backward computation.
…
